Code/rendu/trained_model.ckpt (torch, 17168 bytes, 24 tensors)

exp_avg f4 [15, 3]
-1.5678215e-06 8.5573197e-07 -4.961412e-07 3.2214153e-05 -2.0499283e-05 1.2482242e-05 -2.7346096e-05 2.0121503e-05
-1.084867e-05 8.333869e-06 -4.558092e-06 1.1975649e-06 -3.8239298e-07 5.965917e-06 -1.3915043e-06 6.9545345e-06
-4.6198047e-06 1.8448192e-06 -4.433015e-06 5.920067e-06 2.1735708e-07 3.49133e-06 -7.25309e-07 -4.294166e-07
-2.7120508e-05 2.2375534e-05 -9.086353e-06 -8.589909e-06 6.677983e-06 -5.932367e-06 3.0306415e-05 -1.735299e-05
8.846014e-06 -2.3986997e-06 9.2968285e-06 1.8997121e-06 6.0125167e-06 9.619083e-06 4.126185e-06 2.0041745e-05
-1.558371e-05 6.2110485e-06 1.539237e-05 -6.8066574e-06 7.083151e-06
00000000: f06d d2b5 74b5 6535 902e 05b5 af1d 0738
00000010: e0f5 abb7 d26a 5137 4b65 e5b7 99ca a837
00000020: af02 36b7 b2d1 0b37 b6f1 98b6 04bc a035
00000030: b14b cdb4 d62e c836 b9c3 bab5 ff5a e936
00000040: d203 9bb6 819b f735 4fbf 94b6 fda4 c636
00000050: a962 6934 984c 6a36 dbb2 42b5 918a e6b4
00000060: d980 e3b7 18b3 bb37 9771 18b7 611d 10b7
00000070: 7013 e036 a50e c7b6 883a fe37 4391 91b7
00000080: 5769 1437 59f9 20b6 93f9 1b37 9cf9 fe35
00000090: 20bf c936 a661 2137 a973 8a36 521f a837
000000a0: c3b9 82b7 8068 d036 dd1e 8137 be64 e4b6
000000b0: ceab ed36

exp_avg_sq f4 [15, 3]
2.3216919e-10 3.812386e-10 1.12936764e-10 8.173331e-08 1.9503693e-08 3.527506e-08 6.362692e-08 1.538968e-08
2.667543e-08 1.315068e-08 1.7573088e-08 3.7039352e-09 2.0622504e-10 1.6856837e-09 1.3261843e-10 8.9473655e-09
9.851685e-09 7.967662e-10 2.9513727e-09 1.0284306e-09 1.3166789e-09 4.7518794e-10 4.8396864e-10 1.6352653e-09
1.1053204e-07 1.6966611e-08 2.6895023e-08 2.8968095e-09 2.7534814e-09 1.8980126e-09 8.5547065e-08 1.3162516e-08
7.0984707e-09 2.6221883e-10 5.9053225e-09 3.8650844e-10 3.1883693e-09 5.1328346e-09 1.0743939e-09 4.7528996e-08
9.2801855e-09 1.4158779e-08 1.8116161e-08 1.6567286e-09 3.4127168e-09
00000000: d145 7f2f 9096 d12f bf59 f82e 5d85 af33
00000010: 1389 a732 5781 1733 45a3 8833 4432 8432
00000020: e423 e532 4ded 6132 a1f3 9632 5188 7e31
00000030: 30bf 622f b9ad e730 c5d0 112f eeb6 1932
00000040: 2b40 2932 7003 5b30 19d1 4a31 af58 8d30
00000050: 85f6 b430 619e 0230 4408 0530 c8bf e030
00000060: a25d ed33 f9bd 9132 c806 e732 3611 4731
00000070: c237 3d31 316e 0231 ffb5 b733 5c21 6232
00000080: cfe6 f331 0528 902f c4e7 ca31 3a7c d42f
00000090: 631a 5b31 e45c b031 e0a9 9330 af22 4c33
000000a0: b06e 1f32 f83e 7332 dc9d 9b32 f5b2 e330
000000b0: 2685 6a31

exp_avg f4 [15]
-1.5004598e-06 -4.922889e-05 3.9596085e-05 1.0245948e-05 6.586882e-06 -6.876725e-06 -3.3858435e-06 1.2684411e-06
3.0984113e-05 9.5325995e-06 -3.2920576e-05 -9.963976e-06 -1.4305871e-05 -2.5449075e-05 -1.7545517e-05
00000000: 6863 c9b5 1e7b 4eb8 f913 2638 03e6 2b37
00000010: e304 dd36 9ebe e6b6 5938 63b6 4e3f aa35
00000020: f0f4 0138 34ee 1f37 3314 0ab8 f32a 27b7
00000030: 4003 70b7 797b d5b7 b62e 93b7

exp_avg_sq f4 [15]
7.934763e-10 4.514005e-07 3.4161215e-07 3.612842e-08 2.841105e-09 1.3066775e-08 1.6108391e-08 6.722994e-10
3.2388155e-07 7.2576576e-09 1.0664668e-07 5.31894e-09 1.2572606e-08 1.9886497e-07 3.3842213e-08
00000000: ee1b 5a30 0358 f234 d166 b734 9e2b 1b33
00000010: 3f3d 4331 497c 6032 ba5e 8a32 ddcc 3830
00000020: f1e1 ad34 085f f931 a205 e533 e4c1 b631
00000030: e8fe 5732 9687 5534 e859 1133

exp_avg f4 [15, 15]
-3.6312788e-06 -1.3501548e-05 -3.3500382e-05 -5.427001e-06 -7.4935974e-06 -9.91692e-06 -2.1541231e-05 1.2520054e-07
-1.9798237e-05 -1.546189e-05 -2.6005639e-05 1.3269857e-07 -6.088627e-06 -1.5918862e-05 -3.590757e-05 0.0
-3.2919168e-08 -2.8723895e-07 1.0096801e-06 -7.89981e-08 8.378515e-07 -6.6621425e-08 3.0784722e-07 -2.2766384e-08
-3.2409915e-07 -2.7519954e-08 0.0 1.8869082e-11 5.382529e-07 -3.610044e-07 5.057991e-06 1.0330873e-05
1.5348684e-05 3.3274405e-06 2.304626e-06 3.381047e-06 1.3504654e-05 3.5917956e-06 9.282408e-06 5.827523e-06
9.796319e-06 1.7816651e-06 4.3835753e-06 6.784212e-06 1.4456736e-05 -6.1043993e-06 -6.5595054e-06 -1.1260959e-06
-3.0523868e-06 2.127809e-06 2.0191612e-06 -7.0938067e-06 -5.553378e-06 -8.4345254e-07 3.2767289e-06 2.528812e-06
-3.0765314e-06 -3.7672528e-06 8.0151146e-08 8.503145e-07 5.2288647e-06 4.824662e-06 -4.3476757e-06 1.2885836e-06
-1.7425106e-06 -3.3151707e-06 2.5677923e-06 5.2098967e-06 -2.7676044e-06 -4.103322e-06 -7.2129437e-06 2.7814187e-06
1.732371e-06 -2.8435613e-06 -8.163103e-06 3.43432e-06 3.8258377e-06 2.3375708e-06 3.3845124e-06 1.4782537e-06
3.729482e-07 2.82203e-06 1.9108159e-06 1.0252271e-06 1.3002718e-06 1.0090693e-06 8.730378e-07 6.623864e-07
7.1054836e-07 9.493425e-07 -1.5954724e-06 -9.569134e-07 4.7924523e-06 5.9599284e-07 1.412046e-06 2.494027e-06
9.30549e-07 -2.0711082e-06 2.7874257e-06 3.0016674e-06 5.6095873e-06 -1.1453601e-06 -6.51205e-08 2.9010976e-06
7.0500596e-06 2.254493e-06 1.2947798e-06 -6e-45 5.217339e-06 1.8809716e-06 1.0924825e-06 3.7706715e-07
3.8672474e-07 0.0 4.502277e-07 -2.6369776e-07 2.7675665e-07 -6e-45 1.1009076e-06 -4.559051e-07
1.4435596e-05 2.7538472e-05 3.9680992e-05 9.984381e-06 6.2073136e-06 7.2806397e-06 3.599695e-05 9.5430805e-06
2.3400897e-05 1.3074917e-05 2.3578861e-05 5.001827e-06 1.25704955e-05 1.7101072e-05 3.689728e-05 4.712014e-06
5.779439e-06 2.202595e-06 5.7179323e-06 3.0715807e-06 1.9468619e-06 2.9997402e-06 1.1837037e-06 7.158811e-07
1.9071327e-06 7.868043e-07 6.927755e-07 4.7162513e-07 2.1063204e-06 4.890568e-07 0.0 0.0
0.0 0.0 0.0 0.0 0.0 0.0 0.0 0.0
0.0 0.0 0.0 0.0 0.0 -7.4353093e-06 -1.3627721e-05 -1.8655443e-05
-4.628322e-06 -2.9788555e-06 -3.018781e-06 -1.756338e-05 -5.371729e-06 -1.095321e-05 -5.91621e-06 -1.0363347e-05
-2.8814748e-06 -6.3881153e-06 -7.79398e-06 -1.6775772e-05 7.059307e-06 1.3262145e-05 2.2678085e-05 6.8067197e-06
4.8565535e-06 5.087693e-06 1.8138326e-05 3.3682754e-06 1.330723e-05 8.48319e-06 1.5090777e-05 1.781727e-06
6.1412256e-06 1.0395416e-05 2.281967e-05 1.7921446e-06 9.4991435e-07 -2.0799223e-06 1.5116696e-06 -1.8802702e-07
-1.1612875e-06 -2.4007752e-08 1.5438766e-06 -1.4236194e-06 -1.6870259e-06 -3.1288996e-06 8.812554e-07 4.1265838e-07
-7.8224673e-07 -3.3062877e-06 -8.09026e-06 -2.0291089e-05 -4.0287345e-05 -6.9816747e-06 -7.5033145e-06 -9.094409e-06
-2.9821476e-05 -3.2963833e-06 -2.3801726e-05 -1.6393586e-05 -2.8130818e-05 -1.9097313e-06 -9.3300905e-06 -1.773577e-05
-4.1855452e-05
00000000: e5b0 73b6 b584 62b7 c382 0cb8 9519 b6b6
00000010: 8371 fbb6 d960 26b7 71b3 b4b7 dd6e 0634
00000020: 6414 a6b7 28b4 81b7 af26 dab7 e87b 0e34
00000030: e84c ccb6 7f89 85b7 769b 16b8 0000 0000
00000040: 0263 0db3 d235 9ab4 5884 8735 aaa5 a9b3
00000050: b7e8 6035 8411 8fb3 3346 a534 cf8f c3b2
00000060: d9ff adb4 0565 ecb2 0000 0000 65f9 a52d
00000070: 757c 1035 11d0 c1b4 d0b7 a936 c352 2d37
00000080: 0cc1 8037 fe4c 5f36 2ca9 1a36 f2e5 6236
00000090: 0c92 6237 940a 7136 a4bb 1b37 0b8a c336
000000a0: df5a 2437 8c21 ef35 a016 9336 f0a3 e336
000000b0: 358b 7237 64d4 ccb6 b919 dcb6 5c24 97b5
000000c0: 9bd7 4cb6 7bcb 0e36 ed80 0736 5607 eeb6
000000d0: 2757 bab6 9e69 62b5 c6e5 5b36 a9b4 2936
000000e0: 6876 4eb6 e9d0 7cb6 8f1f ac33 2b41 6435
000000f0: 9b73 af36 88e3 a136 40e2 91b6 65f3 ac35
00000100: 35e0 e9b5 337a 5eb6 5652 2c36 acd0 ae36
00000110: 15bb 39b6 45af 89b6 b706 f2b6 69a8 3a36
00000120: d083 e835 03d4 3eb6 43f4 08b7 2b79 6636
00000130: b25f 8036 29df 1c36 7b21 6336 6968 c635
00000140: 9c39 c834 1b62 3d36 913b 0036 899a 8935
00000150: 0085 ae35 5b6f 8735 b35a 6a35 d9ce 3135
00000160: 83bc 3e35 52d6 7e35 0424 d6b5 4b6f 80b5
00000170: dace a036 51fc 1f35 8885 bd35 0f5f 2736
00000180: d7ca 7935 5efd 0ab6 9c0f 3b36 4170 4936
00000190: fd39 bc36 46ba 99b5 60d8 8bb3 7ab0 4236
000001a0: 8d8f ec36 e54b 1736 4cc8 ad35 0400 0080
000001b0: 9a10 af36 b175 fc35 6aa1 9235 b76f ca34
000001c0: 0b9f cf34 0000 0000 d3b6 f134 5892 8db4
000001d0: 2595 9434 0400 0080 e6c2 9335 1fc3 f4b4
000001e0: 6a30 7237 6b02 e737 246f 2638 9782 2737
000001f0: 6b48 d036 384c f436 6efb 1638 381b 2037
00000200: 0b4d c437 575c 5b37 38cb c537 5ed5 a736
00000210: dee5 5237 4674 8f37 27c2 1a38 e41b 9e36
00000220: 01ed c136 4bd0 1336 aadc bf36 5b21 4e36
00000230: d5a6 0236 254f 4936 c0df 9e35 f92a 4035
00000240: 95f8 ff35 c834 5335 2bf7 3935 aa33 fd34
00000250: 4f5a 0d36 ba47 0335 0000 0000 0000 0000
00000260: 0000 0000 0000 0000 0000 0000 0000 0000
00000270: 0000 0000 0000 0000 0000 0000 0000 0000
00000280: 0000 0000 0000 0000 0000 0000 0000 0000
00000290: 0000 0000 d27c f9b6 9ea2 64b7 427e 9cb7
000002a0: fc4c 9bb6 59e8 47b6 4396 4ab6 1255 93b7
000002b0: cd3e b4b6 aec3 37b7 db83 c6b6 3dde 2db7
000002c0: 5c5f 41b6 7e59 d6b6 e4c2 02b7 b2b9 8cb7
000002d0: fcde ec36 7b80 5e37 d13c be37 4765 e436
000002e0: 7af5 a236 f3b6 aa36 c227 9837 880a 6236
000002f0: 1e42 5f37 0653 0e37 652e 7d37 ac23 ef35
00000300: ba10 ce36 f967 2e37 de6c bf37 9f89 f035
00000310: 9efd 7e35 cb94 0bb6 92e4 ca35 79e4 49b4
00000320: 89dd 9bb5 9b39 ceb2 3237 cf35 3113 bfb5
00000330: c56d e2b5 16fa 51b6 698f 6c35 568b dd34
00000340: 96fb 51b5 97e1 5db6 67bb 07b7 c836 aab7
00000350: 35fa 28b8 2144 eab6 fbc4 fbb6 3094 18b7
00000360: 2229 fab7 6f37 5db6 d1a9 c7b7 f584 89b7
00000370: 79fa ebb7 ef28 00b6 6f88 1cb7 47c7 94b7
00000380: f38d 2fb8

exp_avg_sq f4 [15, 15]
7.5476336e-08 1.9611089e-07 2.7797134e-07 3.7510993e-08 1.1673795e-08 8.735829e-09 2.6858135e-07 3.2618953e-08
9.058571e-08 3.3037566e-08 7.6730075e-08 9.596134e-09 3.1457738e-08 4.9253376e-08 2.0933214e-07 0.0
5.0435383e-15 1.0538863e-12 2.0083804e-10 7.685734e-12 5.154874e-10 4.6656963e-14 1.3841928e-12 3.0857536e-14
9.725933e-12 8.163921e-11 0.0 1.1172556e-16 3.498064e-10 2.787075e-11 9.448111e-09 2.3713103e-08
3.1429124e-08 4.9524913e-09 1.1679185e-09 1.0721222e-09 3.2284653e-08 4.1768953e-09 1.0238604e-08 3.2703755e-09
8.300216e-09 1.219738e-09 3.8918526e-09 5.954796e-09 2.3282226e-08 6.7947625e-09 1.9138097e-08 3.1150627e-08
3.17969e-09 2.5819848e-09 1.0980404e-09 2.5046313e-08 2.6435418e-09 9.952628e-09 6.129684e-09 9.602762e-09
7.860544e-10 2.6301508e-09 4.9075424e-09 2.3264176e-08 2.1226997e-08 5.6569544e-08 8.7451426e-08 1.158336e-08
3.8872527e-09 3.2566683e-09 7.9495585e-08 8.973766e-09 2.8747834e-08 1.12711245e-08 2.6351325e-08 2.6268387e-09
9.153012e-09 1.6052777e-08 6.8953675e-08 1.1317923e-09 1.7513834e-09 1.1149656e-09 1.2786656e-09 5.8253e-10
2.2287094e-10 8.8777113e-10 2.2205365e-10 2.6878066e-10 6.80901e-10 4.124194e-10 5.914627e-11 2.3865996e-11
2.4137523e-10 4.96667e-10 5.058684e-09 1.4006557e-08 2.4028541e-08 2.7663656e-09 7.467666e-10 8.614323e-10
2.1368338e-08 2.187029e-09 8.0943074e-09 2.7510516e-09 7.765202e-09 6.3986816e-10 2.5175806e-09 4.470704e-09
2.032726e-08 2.836629e-11 8.984327e-12 1.3755815e-19 1.2867499e-09 6.375604e-11 1.2084658e-09 4.7323923e-13
1.3132024e-11 0.0 8.950612e-12 7.999702e-11 1.8403761e-13 3.6338516e-18 8.3426543e-10 8.2001515e-12
3.489526e-08 8.420937e-08 1.0615228e-07 1.6724528e-08 2.807038e-09 2.6737041e-09 1.1659581e-07 1.632422e-08
3.486092e-08 9.000251e-09 2.656483e-08 4.789924e-09 1.4825925e-08 1.9269963e-08 7.869947e-08 1.1315331e-08
1.4749562e-08 1.77327e-09 1.1373494e-08 1.4726258e-09 3.9468032e-10 6.2035577e-09 2.1281823e-09 2.1197388e-10
4.925243e-10 4.9407357e-11 5.7334604e-10 2.4368182e-10 4.993637e-10 1.3487164e-11 0.0 0.0
0.0 0.0 0.0 0.0 0.0 0.0 0.0 0.0
0.0 0.0 0.0 0.0 0.0 4.99627e-09 1.1656321e-08 1.48437955e-08
2.8358402e-09 5.22862e-10 5.300862e-10 1.5729286e-08 2.2137865e-09 4.876078e-09 1.4667524e-09 4.091569e-09
6.4415756e-10 1.9624864e-09 2.8992353e-09 1.1384721e-08 6.0630305e-09 1.696615e-08 3.260414e-08 3.3596241e-09
9.807976e-10 1.2688406e-09 2.7646673e-08 2.8762186e-09 1.1169405e-08 3.7940735e-09 1.1316298e-08 8.3900903e-10
3.4271146e-09 6.225336e-09 2.9050762e-08 7.0973702e-09 1.699464e-08 1.9553065e-08 3.3529748e-09 6.2e-10
5.09907e-10 2.25364e-08 3.2289358e-09 6.2903958e-09 1.6281299e-09 4.4486717e-09 9.541917e-10 2.8977971e-09
3.5806733e-09 1.3630092e-08 3.5505266e-08 1.0444462e-07 1.9493483e-07 1.7802282e-08 7.2502657e-09 6.997253e-09
1.5952217e-07 1.4969832e-08 6.529434e-08 2.6586196e-08 6.534901e-08 4.4116626e-09 1.7572866e-08 3.428816e-08
1.6420191e-07
00000000: 8e15 a233 8d92 5234 173c 9534 c61b 2133
00000010: e58d 4832 9514 1632 8a31 9034 eb18 0c33
00000020: 0588 c233 30e5 0d33 cec6 a433 3edc 2432
00000030: 261c 0733 a98a 5333 c8c4 6034 0000 0000
00000040: 6eb6 b527 4152 942b e2d2 5c2f 7835 072d
00000050: 33b2 0d30 d11f 5229 cdce c22b 51f8 0a29
00000060: b519 2b2d ca86 b32e 0000 0000 91cf 0025
00000070: e04e c02f 5a27 f52d 3b51 2232 aab1 cb32
00000080: b0fc 0633 932a aa31 7b84 a030 f259 9330
00000090: 5aa9 0a33 5c84 8f31 dbe5 2f32 0ebd 6031
000000a0: bc98 0e32 b7a3 a730 19b9 8531 f19a cc31
000000b0: 28fe c732 5d77 e931 1f65 a432 7aca 0533
000000c0: b381 5a31 c26e 3131 dde9 9630 6d25 d732
000000d0: aea9 3531 1ffc 2a32 459d d231 65f9 2432
000000e0: a911 5830 1abe 3431 339f a831 77d6 c732
000000f0: a956 b632 dff6 7233 eecc bb33 2800 4732
00000100: a390 8531 eacb 5f31 29b7 aa33 0a2b 1a32
00000110: 28f1 f632 eea2 4132 2d5b e232 d683 3431
00000120: 5f3f 1d32 6ee4 8932 af13 9433 678d 9b30
00000130: 53b5 f030 5d3d 9930 0cbd af30 e81f 2030
00000140: 980c 752f 5707 7430 8c26 742f 84c3 932f
00000150: 262a 3b30 dfba e22f 6410 822e 72ed d12d
00000160: 8bb2 842f d585 0830 a8d0 ad31 7da1 7032
00000170: 5267 ce32 6b1a 3e31 0745 4d30 e9c9 6c30
00000180: 798d b732 9f4a 1631 240f 0b32 030d 3d31
00000190: b867 0532 b8e2 2f30 bf01 2d31 ba9c 9931
000001a0: 1e9c ae32 3583 f92d d00d 1e2d 6666 2220
000001b0: 7dd9 b030 7633 8c2e 1c17 a630 7b34 052b
000001c0: 6105 672d 0000 0000 f975 1d2d 52ea af2e
000001d0: 3b35 4f2a c210 8622 3652 6530 3342 102d
000001e0: bedf 1533 97d6 b433 d5f5 e333 a0a9 8f32
000001f0: efe5 4031 4dbc 3731 3963 fa33 5739 8c32
00000200: fdb9 1533 869f 1a32 ae30 e432 9e94 a431
00000210: 1cb5 7e32 1987 a532 7e01 a933 5a65 4232
00000220: 4265 7d32 64b7 f330 2865 4332 6a65 ca30
00000230: 51fa d82f 1227 d531 613f 1231 5811 692f
00000240: 5162 0730 bd4b 592e a499 1d30 2bf7 852f
00000250: 9943 0930 c944 6d2d 0000 0000 0000 0000
00000260: 0000 0000 0000 0000 0000 0000 0000 0000
00000270: 0000 0000 0000 0000 0000 0000 0000 0000
00000280: 0000 0000 0000 0000 0000 0000 0000 0000
00000290: 0000 0000 a8ab ab31 0b41 4832 b403 7f32
000002a0: a1e0 4231 24b9 0f30 80b5 1130 111d 8732
000002b0: 5821 1831 708a a731 c396 c930 d295 8c31
000002c0: 8f10 3130 6ddc 0631 e33b 4731 8896 4332
000002d0: fb52 d031 f5bc 9132 a208 0c33 22df 6631
000002e0: bfcc 8630 5c63 ae30 ad7b ed32 f9a6 4531
000002f0: 90e3 3f32 065d 8231 9b69 4232 03a0 6630
00000300: 7082 6b31 a2e6 d531 4d8b f932 21dd f331
00000310: 9cfb 9132 a5f5 a732 286a 6631 9f6c 2a30
00000320: 8429 0c30 1196 c132 0ae4 5d31 e822 d831
00000330: bac4 df30 eeda 9831 a324 8330 9622 4731
00000340: df0f 7631 c729 6a32 747e 1833 094b e033
00000350: 474f 5134 a2eb 9832 031e f931 7d6c f031
00000360: 1f49 2b34 0297 8032 f137 8c33 aa5f e432
00000370: 0056 8c33 6595 9731 24f3 9632 3b44 1333
00000380: 7a4f 3034

exp_avg f4 [15]
-2.8364124e-05 -4.1956324e-07 1.40134625e-05 -1.7648194e-06 -1.8122745e-06 3.524025e-06 3.4258633e-06 1.7478023e-06
3.587458e-05 5.644827e-06 0.0 -1.6871127e-05 2.0339594e-05 -1.008907e-06 -3.443294e-05
00000000: 7eef edb7 5540 e1b4 5d1b 6b37 bcde ecb5
00000010: 473d f3b5 4a7e 6c36 e2e7 6536 0896 ea35
00000020: 0978 1638 b268 bd36 0000 0000 7886 8db7
00000030: f29e aa37 c869 87b5 166c 10b8

exp_avg_sq f4 [15]
2.6186518e-07 3.193638e-11 3.0223184e-08 2.954066e-08 8.063999e-08 2.128955e-09 2.0792958e-08 8.390929e-11
1.00606314e-07 8.543525e-09 0.0 1.4363453e-08 2.6798205e-08 1.9320485e-08 1.6684389e-07
00000000: 7a96 8c34 2b75 0c2e bece 0133 99c0 fd32
00000010: 4e2c ad33 f94c 1231 339c b232 bb84 b82e
00000020: e80c d833 d2c6 1232 0000 0000 22c3 7632
00000030: e031 e632 32f6 a532 b325 3334

exp_avg f4 [15, 15]
8.527145e-06 -1.9067066e-08 1.6986329e-05 2.9958825e-05 1.0345175e-05 2.3116556e-06 2.0665144e-05 3.1625973e-07
9.862487e-06 2.6746666e-06 0.0 2.9840752e-05 1.918109e-05 2.0085054e-05 1.2732724e-05 7.097861e-07
-1.1506245e-09 8.547527e-06 4.90589e-06 4.5848125e-07 -1.5609668e-07 2.5907339e-06 -5.386861e-08 1.2321634e-06
1.4270768e-07 0.0 9.573054e-06 1.3052704e-06 8.2145567e-07 4.844093e-06 -6.9107823e-06 1.966531e-08
-1.5558782e-05 -2.6360347e-05 -8.503614e-06 -1.4027561e-06 -1.7480716e-05 -2.7710866e-08 -8.544614e-06 -1.5149553e-06
0.0 -2.6547035e-05 -1.6341743e-05 -1.6794833e-05 -1.1653967e-05 9.884765e-06 -8.855242e-08 1.756657e-05
3.1290718e-05 1.2029014e-05 2.7763592e-06 2.1840768e-05 3.758323e-07 1.12074185e-05 3.1102506e-06 0.0
3.061383e-05 2.0897669e-05 2.2562777e-05 1.2946985e-05 -9.592499e-07 -8.8994556e-10 -3.8024687e-06 -4.359441e-06
-7.1715846e-07 -3.0895593e-09 -2.9942573e-06 -3.4198083e-10 -7.270334e-07 -8.112538e-08 0.0 -6.036592e-06
-2.3003454e-06 -2.2421723e-06 -2.8629363e-06 5.0784265e-06 -7.683596e-08 4.9033792e-06 1.6689102e-05 6.556744e-06
1.7875622e-06 1.2120159e-05 2.8131916e-07 5.43457e-06 1.7988862e-06 0.0 1.3084766e-05 1.23992895e-05
1.3247725e-05 4.941177e-06 -4.3272275e-06 3.2389895e-09 -9.2438395e-06 -1.5520976e-05 -5.0191297e-06 -1.131525e-06
-1.0856567e-05 -1.9643853e-07 -4.720144e-06 -1.3074849e-06 0.0 -1.6187947e-05 -9.845494e-06 -1.0247914e-05
-6.9943794e-06 -3.562121e-06 7.467229e-09 -3.6308272e-06 -6.6917746e-06 -4.816227e-06 -1.4056637e-06 -4.1269664e-06
2.508467e-07 -4.56298e-06 -1.0274603e-06 0.0 -5.2720748e-06 -6.011662e-06 -7.1626027e-06 -1.9981715e-06
2.0908071e-06 -3.6066863e-09 2.0797754e-06 6.6110165e-06 2.8247414e-06 6.323649e-07 4.490179e-06 1.1155735e-07
2.5193178e-06 6.6077786e-07 0.0 4.924328e-06 4.834483e-06 5.2577257e-06 1.7967257e-06 -2.1410078e-06
1.1295544e-09 2.3252785e-06 -5.260195e-06 -2.8675422e-06 -8.7270865e-07 -4.4548706e-06 -1.5184844e-07 -1.9270192e-06
-6.9501954e-07 0.0 -1.095735e-06 -5.1183392e-06 -5.876052e-06 2.1896386e-07 1.6783646e-06 -1.3370484e-08
1.150231e-06 5.2001974e-06 1.8161238e-06 3.9325775e-07 4.100153e-06 9.3858596e-08 1.3751344e-06 4.2430503e-07
0.0 4.2876254e-06 3.7952923e-06 4.098008e-06 1.7604028e-06 2.615733e-06 -7.430471e-09 4.701334e-06
9.420186e-06 2.828657e-06 5.51543e-07 6.7982082e-06 8.986128e-08 2.4422834e-06 6.0291535e-07 0.0
9.545798e-06 6.185207e-06 6.4934757e-06 4.103241e-06 -3.5354128e-06 -7.269255e-27 -1.032736e-05 -1.478616e-05
-3.7978573e-06 -5.379336e-07 -1.0267785e-05 -5.275969e-08 -3.9484125e-06 -1.0376768e-06 0.0 -1.6900389e-05
-8.088852e-06 -8.015154e-06 -7.813185e-06 -9.3157973e-07 -4.6142934e-09 -6.2808963e-06 -4.24879e-06 -1.1631302e-06
-2.662687e-07 -2.2773536e-06 7.496362e-09 -1.7163544e-06 -4.8053926e-07 0.0 -6.8464215e-06 -1.5613996e-06
-1.3106227e-06 -3.3401243e-06 -3.7371524e-07 0.0 -2.9743612e-06 -6e-45 -9.0309624e-07 -1.5558616e-06
-1.1655334e-06 -5.435376e-07 -1.0209656e-06 -2.0113594e-06 0.0 -1.5235387e-06 -3.3383395e-07 -1.7803735e-07
-3.8208094e-07
00000000: cf0f 0f37 ecc8 a3b2 dd7d 8e37 1650 fb37
00000010: 3090 2d37 f121 1b36 0f5a ad37 68ca a934
00000020: 0f77 2537 6c7e 3336 0000 0000 8752 fa37
00000030: 14e7 a037 537c a837 a29e 5537 2188 3e35
00000040: 0024 9eb0 5967 0f37 469d a436 2f25 f634
00000050: 879b 27b4 78dc 2d36 2a5d 67b3 d060 a535
00000060: 303b 1934 0000 0000 f49b 2037 c030 af35
00000070: 0182 5c35 718a a236 2be3 e7b6 79ec a832
00000080: 3b84 82b7 6a20 ddb7 beaa 0eb7 5546 bcb5
00000090: 8da3 92b7 d708 eeb2 d65a 0fb7 7855 cbb5
000000a0: 0000 0000 53b1 deb7 a015 89b7 a1e2 8cb7
000000b0: 6885 43b7 bed6 2537 352a beb3 ec5b 9337
000000c0: 273e 0338 39d0 4937 7d51 3a36 b136 b737
000000d0: ffc5 c934 7f07 3c37 b3b9 5036 0000 0000
000000e0: 5a67 0038 674d af37 3245 bd37 e136 5937
000000f0: 93bf 80b5 5aa0 74b0 ea2d 7fb6 5047 92b6
00000100: c182 40b5 1a50 54b1 f3f0 48b6 8601 bcaf
00000110: 5b29 43b5 2637 aeb3 0000 0000 ee8d cab6
00000120: a25f 1ab6 3a78 16b6 df20 40b6 5a67 aa36
00000130: 0401 a5b3 b587 a436 93ff 8b37 0102 dc36
00000140: 2bec ef35 b057 4b37 3608 9734 9a5a b636
00000150: 4271 f135 0000 0000 a486 5b37 8b06 5037
00000160: 8c42 5e37 63cc a536 9a32 91b6 e894 5e31
00000170: fd15 1bb7 0b33 82b7 ff69 a8b6 e7de 97b5
00000180: 9a24 36b7 9dec 52b4 ba61 9eb6 d77c afb5
00000190: 0000 0000 5acb 87b7 132e 25b7 75ee 2bb7
000001a0: 43b1 eab6 c60c 6fb6 3849 0032 23a9 73b6
000001b0: e889 e0b6 139b a1b6 3daa bcb5 5f7a 8ab6
000001c0: 1cac 8634 b31b 99b6 44e7 89b5 0000 0000
000001d0: c7e6 b0b6 c9b7 c9b6 4a56 f0b6 5318 06b6
000001e0: cb4f 0c36 7fd9 77b1 4592 0b36 33d4 dd36
000001f0: b090 3d36 c9bf 2935 58aa 9636 4d91 ef33
00000200: 8d11 2936 4f60 3135 0000 0000 a83b a536
00000210: e537 a236 856b b036 0627 f135 3cae 0fb6
00000220: aa3e 9b30 fb0b 1c36 bb80 b0b6 0070 40b6
00000230: 1544 6ab5 0c7b 95b6 c80b 23b4 f051 01b6
00000240: 6191 3ab5 0000 0000 2b11 93b5 33be abb6
00000250: e72a c5b6 541c 6b34 2b44 e135 03b4 65b2
00000260: a361 9a35 5b7d ae36 8ac1 f335 ef20 d334
00000270: 0c94 8936 4f8f c933 4291 b835 0acc e334
00000280: 0000 0000 6cde 8f36 a0b2 7e36 9f81 8936
00000290: fb46 ec35 f389 2f36 1d4f ffb1 27c0 9d36
000002a0: 640b 1e37 f5d3 3d36 bf0d 1435 2a1c e436
000002b0: c3f9 c033 1ce6 2336 07d8 2135 0000 0000
000002c0: e426 2037 868a cf36 88e2 d936 92ae 8936
000002d0: ee41 6db6 80fb 0f94 ac43 2db7 1312 78b7
000002e0: b1de 7eb6 8466 10b5 cd43 2cb7 e599 62b3
000002f0: 9b7c 84b6 4e46 8bb5 0000 0000 4fc5 8db7
00000300: 5bb5 07b7 d378 06b7 6015 03b7 ac11 7ab5
00000310: c18b 9eb1 7dc0 d2b6 d490 8eb6 d91c 9cb5
00000320: b1f3 8eb4 a3d4 18b6 59c9 0032 7d5d e6b5
00000330: 68fe 00b5 0000 0000 50ba e5b6 4891 d1b5
00000340: a7e8 afb5 e626 60b6 08a3 c8b4 0000 0000
00000350: 239b 47b6 0400 0080 4d6c 72b5 ffd2 d0b5
00000360: 6c6f 9cb5 9fe7 11b5 1c08 89b5 e4fa 06b6
00000370: 0000 0000 647c ccb5 ca39 b3b4 892a 3fb4
00000380: ce20 cdb4

exp_avg_sq f4 [15, 15]
4.4419335e-09 4.1513372e-13 3.3679886e-08 5.3906785e-08 6.2460064e-09 4.9851984e-10 2.6038105e-08 7.052029e-12
6.1989467e-09 8.3478485e-10 0.0 7.178161e-08 1.9343563e-08 2.032518e-08 1.4860466e-08 3.524079e-09
3.3987518e-13 2.667672e-08 4.536528e-08 4.867336e-09 3.4584965e-10 2.1653785e-08 8.110572e-12 4.822338e-09
5.5810573e-10 0.0 5.9352832e-08 1.6134482e-08 1.6831567e-08 1.227469e-08 2.775803e-09 3.4495594e-13
2.1937145e-08 3.4224893e-08 3.9059027e-09 2.5308036e-10 1.6374734e-08 5.018605e-13 3.905131e-09 4.759682e-10
0.0 4.6069463e-08 1.20483845e-08 1.267156e-08 9.6438475e-09 6.862372e-09 3.3874262e-13 5.4364346e-08
8.8035854e-08 9.603524e-09 6.2857575e-10 4.2046974e-08 9.789517e-12 9.73423e-09 1.1137543e-09 0.0
1.17059e-07 3.099197e-08 3.242144e-08 2.4267655e-08 1.077327e-09 2.562263e-13 7.2631376e-09 1.2042456e-08
1.4541227e-09 1.7245902e-10 6.0085856e-09 4.773639e-12 1.349299e-09 2.3009526e-10 0.0 1.6077605e-08
4.523237e-09 4.7811852e-09 3.2746332e-09 2.6765694e-09 2.1635662e-13 1.6323556e-09 3.1258857e-08 4.450999e-09
1.5635447e-10 1.39813965e-08 1.2109723e-11 3.1987382e-09 8.4960004e-11 0.0 1.6271263e-08 1.7115578e-08
2.000926e-08 2.236363e-09 1.6881921e-09 1.2327655e-13 1.3444248e-08 2.2020158e-08 2.2780664e-09 1.5878851e-10
1.0625008e-08 3.060839e-12 2.2726006e-09 2.6654726e-10 0.0 2.9703013e-08 7.646884e-09 7.908763e-09
6.1721104e-09 1.7965269e-09 4.973251e-13 3.1936032e-09 8.228076e-09 3.9895816e-09 3.2319383e-10 2.9546658e-09
8.948561e-12 4.082906e-09 2.9173314e-10 0.0 4.4864907e-09 5.8069918e-09 7.892632e-09 5.9199695e-10
3.2168454e-10 1.7212391e-13 2.283919e-10 2.5653668e-09 5.4663696e-10 6.272663e-11 1.2110047e-09 2.6428482e-12
3.8686482e-10 4.1643158e-11 0.0 1.4053615e-09 1.5814083e-09 1.8974018e-09 1.8485956e-10 5.010211e-09
2.899926e-13 3.94936e-08 6.787107e-08 6.912638e-09 4.122046e-10 3.211422e-08 9.111324e-12 6.963303e-09
7.312552e-10 0.0 8.865104e-08 2.3624768e-08 2.4442434e-08 1.8439925e-08 1.7408761e-09 1.6775658e-13
1.9751909e-08 2.5429237e-08 1.9982103e-09 2.025786e-10 1.3176804e-08 5.510318e-12 2.1373425e-09 4.618086e-10
0.0 4.092696e-08 7.410472e-09 7.152563e-09 9.032173e-09 2.582855e-09 2.9733735e-13 2.0464741e-08
3.212804e-08 3.4960017e-09 3.081318e-10 1.5724693e-08 6.768182e-12 3.4599725e-09 4.956403e-10 0.0
4.408841e-08 1.1249062e-08 1.1671294e-08 9.181641e-09 7.149098e-10 7.460809e-23 8.9620045e-09 1.2013834e-08
8.182435e-10 3.5919427e-11 6.0057705e-09 5.267479e-14 9.247152e-10 1.3124897e-10 0.0 1.894681e-08
3.3640748e-09 3.2211258e-09 4.2010373e-09 3.833194e-09 4.4818248e-13 3.06242e-08 4.5101398e-08 5.350544e-09
5.2745813e-10 2.226252e-08 9.814402e-12 5.3282587e-09 8.729914e-10 0.0 6.273274e-08 1.598754e-08
1.6711768e-08 1.3103186e-08 6.428544e-13 0.0 4.4698554e-11 4.2812136e-17 3.7075104e-12 1.2283831e-11
7.013139e-12 2.2690441e-12 4.9558695e-12 2.0029634e-11 0.0 1.2370635e-11 7.033809e-13 2.510153e-13
1.0122426e-12
00000000: a99f 9831 13b3 e92a 6da7 1033 2387 6733
00000010: 749c d631 3708 0930 66aa df32 081f f82c
00000020: 83fe d431 c376 6530 0000 0000 5c26 9a33
00000030: f228 a632 8b97 ae32 054d 7f32 412c 7231
00000040: 2d55 bf2a ba26 e532 a7d7 4233 8a3d a731
00000050: 0322 be2f 2d01 ba32 c5ae 0e2d bcb1 a531
00000060: 3369 1930 0000 0000 21eb 7e33 1a98 8a32
00000070: 0295 9032 a8e0 5232 71c0 3e31 6431 c22a
00000080: 4b70 bc32 abfe 1233 af34 8631 e521 8b2f
00000090: 6ca8 8c32 dc42 0d2b e52d 8631 49d5 0230
000000a0: 0000 0000 e9dd 4533 5bfd 4e32 1cb2 5932
000000b0: 17ae 2532 10ca eb31 f5b1 be2a 3b7e 6933
000000c0: 390e bd33 bffc 2432 16c8 2c30 2397 3433
000000d0: 1138 2c2d 993b 2732 bf12 9930 0000 0000
000000e0: de61 fb33 081c 0533 c03f 0b33 2375 d032
000000f0: 1311 9430 1a3e 902a 3c8f f931 48e3 4e32
00000100: 65da c730 e69e 3d2f 1474 ce31 1ef5 a72c
00000110: 3d72 b930 0ffe 7c2f 0000 0000 071b 8a32
00000120: d06a 9b31 c047 a431 f507 6131 b5ee 3731
00000130: 8d98 732a 6859 e030 7a41 0633 67ef 9831
00000140: dfe9 2b2f d532 7032 5809 552d ccd0 5b31
00000150: 3bd4 ba2e 0000 0000 e3c4 8b32 8e05 9332
00000160: d4e0 ab32 84ae 1931 fb05 e830 0ccc 0a2a
00000170: 6ef8 6632 d726 bd32 2b8c 1c31 fe96 2e2f
00000180: 4889 3632 2c63 572c 032c 1c31 3189 922f
00000190: 0000 0000 9e25 ff32 5a5f 0332 1cdf 0732
000001a0: 7512 d431 ace9 f630 0dfc 0b2b 7676 5b31
000001b0: 765b 0d32 bb14 8931 7dad b12f 080b 4b31
000001c0: bc6c 1d2d 9f49 8c31 ca61 a02f 0000 0000
000001d0: 9727 9a31 d786 c731 2a98 0732 15ba 2230
000001e0: 13d9 b02f 57cb 412a 9b1e 7b2f 694a 3031
000001f0: 2842 1630 f4ef 892e 7170 a630 52f9 392c
00000200: 62ae d42f 0726 372e 0000 0000 c326 c130
00000210: dc58 d930 7263 0231 5741 4b2f 4826 ac31
00000220: 5740 a32a ac9f 2933 84c0 9133 3584 ed31
00000230: a49c e22f f5ed 0933 c149 202d dc41 ef31
00000240: 8301 4930 0000 0000 6d60 be33 6aef ca32
00000250: 7bf5 d132 d365 9e32 a243 ef30 8be0 3c2a
00000260: e8aa a932 7c6f da32 e350 0931 cfbc 5e2f
00000270: 3260 6232 88e0 c12c 87e0 1231 c8e1 fd2f
00000280: 0000 0000 abc7 2f33 339f fe31 9cc2 f531
00000290: eb2b 1b32 117e 3131 d462 a72a 71ca af32
000002a0: 27fd 0933 503e 7031 b265 a92f f712 8732
000002b0: 5d22 ee2c 7bc4 6d31 963d 0830 0000 0000
000002c0: b85b 3d33 e641 4132 e582 4832 49bd 1d32
000002d0: 4e83 4430 2c64 b41a 50f7 1932 6765 4e32
000002e0: c4ea 6030 aef9 1d2e 515b ce31 e639 6d29
000002f0: 0c2f 7e30 4d4f 102f 0000 0000 7ac0 a232
00000300: 6e2d 6731 a55a 5d31 b758 9031 22b5 8331
00000310: e74d fc2a aa87 0333 83b5 4133 e2d7 b731
00000320: 91fc 1030 cd3b bf32 23a8 2c2d dc13 b731
00000330: 4ff7 6f30 0000 0000 b0b7 8633 f954 8932
00000340: 918d 8f32 6c1c 6132 8bf2 342b 0000 0000
00000350: 1996 442e a66f 4524 4972 822c 7519 582d
00000360: bec0 f62c 77ab 1f2c 815e ae2c ba2e b02d
00000370: 0000 0000 63a0 592d effb 452b 1e4f 8d2a
00000380: e275 8e2b

exp_avg f4 [15]
1.8516856e-05 4.3245464e-06 -1.623902e-05 1.9974013e-05 -2.6923317e-06 9.102296e-06 -9.497669e-06 -5.8682963e-06
3.866909e-06 -1.986479e-06 2.7379144e-06 5.328304e-06 -9.218685e-06 -3.7668096e-06 -1.0361442e-06
00000000: a554 9b37 921b 9136 0839 88b7 de8d a737
00000010: e8ad 34b6 10b6 1837 2e58 1fb7 48e8 c4b6
00000020: 7fc0 8136 734f 05b6 03bd 3736 c8c9 b236
00000030: f3a9 1ab7 4cc9 7cb6 a511 8bb5

exp_avg_sq f4 [15]
2.4029942e-08 1.9445803e-08 1.5365371e-08 3.8715566e-08 5.244407e-09 8.525227e-09 9.514718e-09 5.6336673e-09
8.3367424e-10 2.8771797e-08 1.13300604e-08 1.4167328e-08 5.196767e-09 2.068995e-08 5.1309946e-12
00000000: 676a ce32 c609 a732 cffc 8332 3748 2633
00000010: 4b32 b431 5876 1232 2c76 2332 4392 c131
00000020: 9c28 6530 da25 f732 22a6 4232 9164 7332
00000030: 3f8f b231 aeb9 b132 e487 b42c

exp_avg f4 [3, 15]
-1.8885576e-05 -1.5608759e-05 -2.8888324e-05 -1.4294592e-05 -3.8196442e-05 -4.3451873e-06 -4.3124957e-05 -1.9274623e-06
-2.7286922e-06 -2.247875e-05 -2.3332232e-05 -2.419433e-05 -1.2585786e-05 -2.3113831e-05 -1.2276332e-07 1.3735659e-05
1.3264059e-05 2.8829762e-05 9.766797e-06 3.3786215e-05 2.5953716e-06 4.022908e-05 1.3401266e-06 1.816333e-06
1.8326211e-05 2.3366327e-05 2.1858596e-05 1.3724641e-05 2.1978753e-05 1.1414274e-08 1.2077166e-05 6.776506e-06
1.3742622e-05 7.5360567e-06 2.4325695e-05 4.008925e-06 2.411665e-05 1.972684e-06 2.5271074e-06 1.1801953e-05
8.2603965e-06 1.0180349e-05 4.672939e-06 1.008668e-05 1.9809077e-07
00000000: 776c 9eb7 8eef 82b7 3455 f2b7 ced2 6fb7
00000010: 1e35 20b8 e0cc 91b6 12e1 34b8 8d59 01b6
00000020: 931e 37b6 c090 bcb7 96b9 c3b7 eef4 cab7
00000030: 8a27 53b7 93e4 c1b7 edd0 03b4 3572 6637
00000040: b388 5e37 71d7 f137 13dc 2337 acb5 0d38
00000050: 252c 2e36 a5bb 2838 66de b335 bac8 f335
00000060: 3dbb 9937 ce02 c437 fa5c b737 e242 6637
00000070: 035f b837 8218 4432 089f 4a37 be61 e336
00000080: 1d90 6637 3cde fc36 080f cc37 6784 8636
00000090: 1d4e ca37 7462 0436 6097 2936 0101 4637
000000a0: 2296 0a37 44cc 2a37 3ecc 9c36 f639 2937
000000b0: c7b2 5434

exp_avg_sq f4 [3, 15]
2.770746e-08 3.100582e-08 6.9286756e-08 2.0312685e-08 1.1154126e-07 1.8906916e-09 1.5439564e-07 9.208065e-10
1.1186377e-09 5.8812375e-08 6.4104e-08 5.9073034e-08 1.35796245e-08 5.3231634e-08 5.3688466e-13 2.1370758e-08
1.9358513e-08 6.5727484e-08 1.2812098e-08 1.0623557e-07 1.510544e-09 1.4069062e-07 5.290145e-10 7.88172e-10
3.8485062e-08 5.0091092e-08 4.3971838e-08 1.3725472e-08 4.3218048e-08 8.267463e-13 2.0954664e-08 1.881956e-08
7.020534e-08 1.2412188e-08 1.0688708e-07 1.0559417e-09 1.4479384e-07 2.5751998e-10 4.4050716e-10 3.658345e-08
5.2168218e-08 4.6235687e-08 1.46436125e-08 4.490098e-08 3.5062044e-13
00000000: 5901 ee32 422b 0533 ccca 9433 117c ae32
00000010: 7588 ef33 66ed 0131 f3c7 2534 ff1b 7d30
00000020: 91be 9930 e498 7c33 8ca9 8933 7db7 7d33
00000030: d24b 6932 cda0 6433 9e1e 172b cb92 b732
00000040: d249 a632 1126 8d33 341c 5c32 9f23 e433
00000050: 8b9b cf30 be10 1734 166a 1130 ada6 5830
00000060: c64a 2533 bd23 5733 8cdb 3c33 44cd 6b32
00000070: bf9e 3933 59b5 682b cbff b332 a6a8 a132
00000080: cbc3 9633 613d 5532 cb89 e533 a520 9130
00000090: a178 1b34 b792 8d2f df2b f22f ee1f 1d33
000000a0: 900f 6033 ad94 4633 4a93 7b32 26d9 4033
000000b0: bb61 c52a

exp_avg f4 [3]
-2.464534e-05 2.1638327e-05 1.23734735e-05
00000000: 77bd ceb7 f483 b537 aa97 4f37

exp_avg_sq f4 [3]
4.9353588e-08 4.107675e-08 4.353534e-08
00000000: d8f8 5333 5d6c 3033 9dfb 3a33

layers.0.weight f4 [15, 3]
0.629475 -0.5762932 -0.29260787 0.3689271 -0.3580635 -0.7865946 -0.48231277 0.010879975
-0.42720303 1.1025758 -0.43975332 0.5206521 0.6082639 0.7825894 -0.031107103 -0.3282882
0.34175444 0.9499021 -0.22707555 -0.48963797 -0.599469 0.09505252 -1.1941574 0.18554217
-0.37386152 -0.00083474413 -0.71216816 -0.03756593 0.59400696 0.0030586645 -0.8385136 0.33246416
0.38999507 0.035207305 -0.613709 -0.061652713 -0.37304536 -0.49488035 -0.6895943 -0.30152267
-0.03680708 0.72442913 -1.101859 0.07990094 0.21098766
00000000: 4625 213f f387 13bf b3d0 95be 03e4 bc3e
00000010: 1954 b7be 445e 49bf b3f1 f6be ec41 323c
00000020: 5bba dabe 3421 8d3f 5927 e1be 7549 053f
00000030: 2fb7 1b3f c757 483f 53d4 febc 6415 a8be
00000040: 70fa ae3e c92c 733f 7e86 68be d4b1 fabe
00000050: cd76 19bf e5aa c23d 26da 98bf c4fe 3d3e
00000060: c76a bfbe bbd2 5aba a750 36bf bcde 19bd
00000070: d710 183f e073 483b d4a8 56bf be38 aa3e
00000080: 6fad c73e 8935 103d 081c 1dbf 8e87 7cbd
00000090: cdff bebe f560 fdbe 4189 30bf 2e61 9abe
000000a0: 05c3 16bd 3074 393f b709 8dbf 1ba3 a33d
000000b0: 260d 583e

layers.0.bias f4 [15]
0.38886225 0.7584284 0.74555516 0.16368484 -0.11331385 0.038069084 0.74764186 -0.35538566
0.25242123 0.18156263 0.105262876 -0.19925593 -0.1301499 0.50711185 0.41815013
00000000: f418 c73e 5d28 423f b4dc 3e3f 009d 273e
00000010: 1711 e8bd 54ee 1b3d 7565 3f3f 1cf5 b5be
00000020: 5b3d 813e 8eeb 393e 1094 d73d bf09 4cbe
00000030: 0446 05be 15d2 013f c617 d63e

layers.2.weight f4 [15, 15]
0.0482011 0.64860976 -0.32862884 -0.2676047 -0.07132101 0.37165228 -0.23138174 -0.013137804
-0.4927675 0.10910798 0.3843928 -0.21378794 -0.036617156 0.5053859 0.20290026 -0.18375179
0.9523711 -0.35034606 -0.6401995 0.028027382 0.27248105 0.40631962 0.18263651 -1.0706596
-0.4410021 0.56633437 -0.019560248 -1.3286214 0.20676158 0.77517027 0.45435208 0.091924705
0.4279518 0.4705691 0.06536481 0.08870229 -0.041233625 0.34937635 0.26117048 -0.12948823
-0.27370495 0.22413899 -0.027885431 -0.113950916 -0.22741316 0.1431371 0.13375053 0.40304756
-0.31266654 0.19837084 -0.015367368 0.1319648 -0.036333192 0.40445325 -0.033764176 0.37150013
0.08599588 0.33087203 -0.15025303 0.2965483 0.10963872 0.30639386 -0.11917958 -0.08435841
0.3278216 0.17927237 -0.1289947 -0.07473987 -0.3129456 0.2097159 0.22239327 0.025696553
-0.28927076 0.38457474 0.20144652 0.17833465 -0.057343505 0.012179242 0.33993334 0.08065299
0.59715575 -0.22877006 0.28073543 0.16392215 0.08963902 -0.060231168 -0.5829172 -0.105051436
0.18806995 -0.18690203 0.1339228 -0.119079046 0.29845157 0.3343255 -0.21868335 0.13888933
0.03188027 -0.06916531 0.34383655 -0.14171398 0.1226768 0.01509143 0.14321283 0.21596159
0.23953523 -0.7749109 0.11914535 -0.8966877 0.58892924 -0.18101008 0.04390773 -1.0304766
1.1676267 -0.048584964 -1.114276 -0.27870488 -0.8830862 0.45012355 0.12353236 -0.68540794
0.085207656 -0.100436896 0.32203102 0.14798953 0.26866007 0.14649858 -0.011695405 -0.0922478
0.14886598 0.2502262 -0.33348837 -0.42035186 -0.12526909 -0.094264254 -0.10029585 0.22027129
-0.04291878 0.041717168 0.38323262 0.18761384 0.11440774 -0.16544478 0.24694006 -0.6820251
-0.08869389 0.4723224 -0.2022056 -0.62545484 0.29709983 -0.52235645 0.1874981 -0.23299234
0.07115831 -0.102095604 -0.14020996 0.00031235247 -0.14976875 -0.11374385 -0.16787846 0.019974397
-0.21232048 0.19999585 0.12040094 0.12869413 -0.22204015 0.3481127 0.32318395 0.27197453
0.027256144 -0.15464224 0.29599515 0.15551087 0.31379652 0.24193524 -0.34744248 0.10305735
0.16564624 0.31326184 0.24553731 0.17603871 -0.14110333 -0.16342647 0.31426036 0.092629544
0.111121915 0.3436878 0.03925948 0.2524137 0.25665218 0.22180575 0.015547377 -0.17838416
-0.085804954 0.0113740945 0.26346457 0.04621833 -0.049352717 0.19016986 -0.148669 -0.101597644
0.37127444 -0.064698994 0.039770015 0.0190163 0.28038868 0.58311236 -0.002047011 -0.21321908
0.2649467 -0.027792461 0.15044686 0.54731274 -0.34290704 -0.2691766 -0.059537545 0.10332757
0.1281842 0.07820277 -0.28750497 -0.21299058 0.29929572 0.15602036 0.19136707 0.110623196
0.29110068
00000000: 846e 453d 4a0b 263f 0a42 a8be 7c03 89be
00000010: c010 92bd 3549 be3e 56ef 6cbe f23f 57bc
00000020: 064c fcbe 0174 df3d 22cf c43e 3aeb 5abe
00000030: dffb 15bd f860 013f 16c5 4f3e 6e29 3cbe
00000040: 98ce 733f 8f60 b3be 1de4 23bf ae99 e53c
00000050: a382 8b3e 2009 d03e 1105 3b3e 600b 89bf
00000060: 07cb e1be 4afb 103f d03c a0bc 4410 aabf
00000070: 4fb9 533e 8f71 463f d6a0 e83e 0543 bc3d
00000080: 801c db3e 6fee f03e fcdd 853d 8ca9 b53d
00000090: 97e4 28bd 75e1 b23e 23b8 853e 9098 04be
000000a0: 0e23 8cbe b184 653e fd6f e4bc 195f e9bd
000000b0: ffde 68be 8892 123e e6f5 083e 405c ce3e
000000c0: d415 a0be ba21 4b3e 6ac7 7bbc c821 073e
000000d0: 1dd2 14bd 7f14 cf3e 4e4c 0abd 4435 be3e
000000e0: 9c1e b03d 0f68 a93e eedb 19be 2ed5 973e
000000f0: 448a e03d a8df 9c3e 6c14 f4bd 1ac4 acbd
00000100: 3cd8 a73e 2d93 373e 3017 04be 3811 99bd
00000110: 683a a0be c4bf 563e 10bb 633e 9481 d23c
00000120: 4c1b 94be fbe6 c43e ff47 4e3e 5c9d 363e
00000130: 06e1 6abd 728b 473c be0b ae3e 652d a53d
00000140: 33df 183f b342 6abe 8ebc 8f3e 35db 273e
00000150: aa94 b73d f5b4 76bd 103a 15bf 3525 d7bd
00000160: 6995 403e 3f63 3fbe 0f23 093e b7df f3bd
00000170: a5ce 983e b62c ab3e 87ee 5fbe 0139 0e3e
00000180: e394 023d 8ba6 8dbd 580b b03e 781d 11be
00000190: f93d fb3d 0c42 773c 62a6 123e 0925 5d3e
000001a0: b948 753e 9060 46bf 7a02 f43d 538d 65bf
000001b0: 11c4 163f b55a 39be 98d8 333d a8e6 83bf
000001c0: cb74 953f 0701 47bd 99a0 8ebf 68b2 8ebe
000001d0: f011 62bf 9876 e63e 89fe fc3d e576 2fbf
000001e0: 5a81 ae3d dcb1 cdbd 40e1 a43e 918a 173e
000001f0: d08d 893e b903 163e 159e 3fbc 6aec bcbd
00000200: 5370 183e a61d 803e fdbe aabe 5c38 d7be
00000210: 8a46 00be 9e0d c1bd e967 cdbd cc8e 613e
00000220: 9acb 2fbd 9fdf 2a3d 1137 c43e d81d 403e
00000230: 9b4e ea3d 5b6a 29be dbdd 7c3e 3299 2ebf
00000240: 24a5 b5bd 3ed4 f13e fc0e 4fbe cf1d 20bf
00000250: 781d 983e 27b9 05bf 80ff 3f3e 8b95 6ebe
00000260: 73bb 913d 8017 d1bd 3393 0fbe 3dc3 a339
00000270: fb5c 19be 89f2 e8bd 55e8 2bbe 59a1 a33c
00000280: 8a6a 59be b6cb 4c3e c594 f63d 65c8 033e
00000290: 7e5e 63be d43b b23e 5e78 a53e 3f40 8b3e
000002a0: 4748 df3c 895a 1ebe ad8c 973e 3e3e 1f3e
000002b0: f0a9 a03e dfbd 773e fbe3 b1be bb0f d33d
000002c0: 2b9f 293e db63 a03e 226e 7b3e 7e43 343e
000002d0: 647d 10be 4559 27be bce6 a03e 8fb4 bd3d
000002e0: e393 e33d d9f7 af3e 8cce 203d 5e3c 813e
000002f0: ea67 833e 0c21 633e 6dba 7e3c 56aa 36be
00000300: 82ba afbd 695a 3a3c d4e4 863e 6e4f 3d3d
00000310: 1326 4abd e3bb 423e b03c 18be 6d12 d0bd
00000320: af17 be3e e880 84bd e2e5 223d 12c8 9b3c
00000330: 1b8f 8f3e da46 153f 2527 06bb 1a56 5abe
00000340: 18a7 873e 04ad e3bc be0e 1a3e b01c 0c3f
00000350: 8391 afbe 84d1 89be a4dd 73bd 689d d33d
00000360: b842 033e c628 a03d da33 93be 341a 5abe
00000370: 4a3d 993e cdc3 1f3e bbf5 433e 6a8e e23d
00000380: 260b 953e

layers.2.bias f4 [15]
0.17471133 -1.0484873 0.314183 0.09567341 0.16251302 -0.10635105 0.059456296 -0.1786229
0.4027641 0.06102029 -0.18549356 0.13450305 0.1506811 0.3994119 0.15864141
00000000: 87e7 323e d534 86bf 98dc a03e 6cf0 c33d
00000010: d069 263e 94ce d9bd 7288 733d ece8 36be
00000020: 1937 ce3e 69f0 793d 06f2 3dbe 2bbb 093e
00000030: 254c 1a3e b77f cc3e e572 223e

layers.4.weight f4 [15, 15]
-0.42474967 -1.049104 0.13938147 0.13850327 0.20958194 0.20268257 0.04122224 1.0042638
0.34456122 0.16562861 -0.13926543 -0.13059638 0.29152375 0.15257064 -0.42593113 0.27867305
0.848923 0.25935492 -0.30408907 0.573636 0.30381408 0.031098869 -0.53248864 0.26151767
0.09854764 -0.2070244 0.035248894 0.025080424 -0.07085439 0.29863063 0.034630515 0.888194
0.14177328 0.31663555 0.2650133 -0.13479091 0.022786688 -0.118800685 -0.4770777 -0.19810261
-0.06578993 0.35047007 -0.21026042 0.023520634 0.16171119 -0.6048124 0.4335679 0.49984553
0.09913724 0.13526656 0.12066126 0.060757842 0.9538039 0.67260915 0.34351492 -0.0022103523
-0.17160283 0.48461828 -0.14570935 -0.6111804 0.07538636 0.5535214 -0.25775787 0.34327832
-0.10252298 0.10537208 0.28984955 0.17022748 0.045534536 0.30463347 0.23530929 0.30733997
0.32773402 0.25023872 0.005095445 -0.17677127 -1.2583106 0.07643315 0.036630016 -0.31984702
0.21491158 0.30640456 0.93446004 0.045656405 0.4524338 0.09430157 -0.06397994 0.4598446
0.09386784 -0.84250695 0.33820444 1.0886123 0.00016973277 -0.051332615 0.27819595 0.035307754
0.25789037 -0.70022106 -0.28386578 -0.1654113 0.04272146 0.36640847 0.3486462 0.16668348
0.36880773 0.8591932 1.2351724 -0.26922408 -0.78700006 0.48403248 0.39967096 -0.17256646
-0.56961036 -0.053518143 -0.7843551 0.036961135 -0.121459976 0.17540358 0.1346293 0.64989805
-0.0489868 -0.47369105 -0.16325462 0.0733978 0.1547738 0.66390496 0.16460964 0.5576661
-0.06530896 0.077771895 -0.043428626 -0.30589446 0.30024785 -0.16559605 0.12038624 0.8384519
1.1984462 0.20930819 -0.42738107 0.5403727 0.49692258 -0.113326415 -0.99140865 0.10950978
0.006768176 0.22862747 -0.030462721 -0.03886656 0.27248383 0.27317786 -0.6440822 -0.20199326
0.39145222 -0.027248163 -0.22116962 0.33968005 0.41872138 0.67394006 0.015983 0.5179788
-0.005150245 0.38607037 -0.04179828 -0.30523372 -0.0393291 -0.16259862 -0.26212916 0.43454546
-0.15024759 -0.096970215 -0.17237535 0.2041889 0.7499212 0.5279186 0.26861316 -0.10982849
-0.029237272 0.15964955 -0.15175922 0.113716856 -0.43205923 0.23048016 0.19443868 0.39012071
-0.17478406 -0.0786225 0.07025938 0.3405336 -0.26059207 -0.14838515 -0.20901695 0.029203068
0.01276351 -0.36623004 0.04408559 -0.15864353 -0.65086067 0.15460797 0.13115047 -0.29637402
0.15899809 0.32431227 0.77023757 0.12575312 0.5156062 0.22542225 0.26462728 -0.14307582
-0.25909114 -0.120907865 -0.8173699 0.027941601 0.35149243 -0.054041617 -0.34110054 -0.19045712
0.0631698 1.0447325 0.26626372 0.14989926 0.2343337 -0.112042084 -0.25645888 -1.1286135
-0.48775154
00000000: ca78 d9be 0a49 86bf 04ba 0e3e cdd3 0d3e
00000010: a69c 563e 058c 4f3e a7d8 283d b78b 803f
00000020: 546a b03e 8c9a 293e 999b 0ebe 0fbb 05be
00000030: 9a42 953e 7a3b 1c3e a513 dabe 3cae 8e3e
00000040: 0553 593f 2bca 843e 90b1 9bbe cfd9 123f
00000050: 858d 9b3e 0ec3 fe3c 2d51 08bf a5e5 853e
00000060: 58d3 c93d 34fe 53be 2561 103d 7675 cd3c
00000070: 1b1c 91bd 1de6 983e bad8 0d3d af60 633f
00000080: 042d 113e 0e1e a23e d3af 873e a106 0abe
00000090: 26ab ba3c c64d f3bd 8743 f4be 69db 4abe
000000a0: dfbc 86bd d070 b33e 824e 57be 58ae c03c
000000b0: 9e97 253e fcd4 1abf 9dfc dd3e c1eb ff3e
000000c0: 7708 cb3d 5183 0a3e 401d f73d 37dd 783d
000000d0: 7e2c 743f 1d30 2c3f 30e1 af3e 8fdb 10bb
000000e0: a7b8 2fbe e31f f83e d534 15be 5276 1cbf
000000f0: 2a64 9a3d 94b3 0d3f d7f8 83be 2dc2 af3e
00000100: 91f7 d1bd 51cd d73d 2967 943e 1d50 2e3e
00000110: 6c82 3a3d ebf8 9b3e ebf4 703e aa5b 9d3e
00000120: c1cc a73e 4a1f 803e b1f7 a63b 8703 35be
00000130: 5210 a1bf fc88 9c3d 5b09 163d fdc2 a3be
00000140: c811 5c3e 0fe1 9c3e c638 6f3f 3602 3b3d
00000150: 67a5 e73e 2e21 c13d ea07 83bd c070 eb3e
00000160: c83d c03d 89ae 57bf 2229 ad3e a657 8b3f
00000170: 4bfa 3139 2642 52bd b36f 8e3e dd9e 103d
00000180: 350a 843e b041 33bf db56 91be 9461 29be
00000190: b3fc 2e3d e499 bb3e c181 b23e 13af 2a3e
000001a0: 5ed4 bc3e 16f4 5b3f 211a 9e3f bdd7 89be
000001b0: d678 49bf 1bd3 f73e aca1 cc3e 43b5 30be
000001c0: fcd1 11bf d735 5bbd 7fcb 48bf 8f64 173d
000001d0: 02c0 f8bd ff9c 333e 43dc 093e b85f 263f
000001e0: 62a6 48bd a287 f2be 382c 27be 9651 963d
000001f0: 067d 1e3e adf5 293f 6e8f 283e 35c3 0e3f
00000200: b4c0 85bd df46 9f3d 37e2 31bd 339e 9cbe
00000210: 16ba 993e 0392 29be 108d f63d c9a4 563f
00000220: af66 993f e354 563e b1d1 dabe de55 0a3f
00000230: a36c fe3e ae17 e8bd f5cc 7dbf aa46 e03d
00000240: 93c7 dd3b 521d 6a3e f58c f9bc 8b32 1fbd
00000250: 0083 8b3e f8dd 8b3e 92e2 24bf 52d7 4ebe
00000260: 6d6c c83e 8a37 dfbc 4a7a 62be 8bea ad3e
00000270: a662 d63e 5687 2c3f c8ee 823c 429a 043f
00000280: 63c3 a8bb 04ab c53e ac34 2bbd 9847 9cbe
00000290: 8d17 21bd 4180 26be cb35 86be be7c de3e
000002a0: 81da 19be 5298 c6bd 2a83 30be e516 513e
000002b0: d6fa 3f3f ac25 073f aa87 893e c2ed e0bd
000002c0: 0183 efbc 2c7b 233e c566 1bbe 62e4 e83d
000002d0: de36 ddbe fe02 6c3e ef1a 473e e7bd c73e
000002e0: 98fa 32be d504 a1bd 26e4 8f3d 6c5a ae3e
000002f0: 536c 85be 47f2 17be 8a08 56be 463b ef3c
00000300: 0b1e 513c 8182 bbbe 1793 343d 7373 22be
00000310: ce9e 26bf 8d51 1e3e 4f4c 063e 56be 97be
00000320: 65d0 223e 420c a63e 4a2e 453f 6dc5 003e
00000330: c5fe 033f 17d5 663e 3a7d 873e 7882 12be
00000340: 98a7 84be 8b9e f7bd 273f 51bf c9e5 e43c
00000350: d1f6 b33e be5a 5dbd bba4 aebe 3107 43be
00000360: 2b5f 813d cbb9 853f b853 883e 317f 193e
00000370: 2cf5 6f3e 5276 e5bd 944e 83be 6876 90bf
00000380: 92ba f9be

layers.4.bias f4 [15]
0.29678926 -0.031468038 0.15653801 0.0057634017 -0.09915444 -0.1805163 0.11860537 0.33574423
-0.004689205 0.35709438 0.12516648 0.31977978 0.298834 0.33211207 -0.24201842
00000000: c3f4 973e a1e4 00bd 804b 203e ebda bc3b
00000010: 7c11 cbbd 44d9 38be 5fe7 f23d abe6 ab3e
00000020: e7a7 99bb 13d5 b63e a42b 003e 2dba a33e
00000030: c500 993e 980a aa3e add3 77be

layers.6.weight f4 [3, 15]
-0.37409607 -0.16575871 0.34439364 -0.31069547 -0.21456575 0.011335039 0.008554887 0.031688005
-0.26317558 -0.13345897 0.21836121 0.23793562 0.15784438 0.42435712 0.0020641235 0.11092898
0.36969858 -0.16173914 0.12513728 -0.36051837 -0.13700809 -0.23707353 -0.014451794 -0.16495267
0.2274422 0.102483295 0.29196426 -0.20517674 0.0139704 0.037353605 0.568525 -0.62304926
-0.35583296 0.8370419 -0.017227165 1.06242 -0.3360172 -1.3302047 0.17887169 -0.8267611
0.5074334 0.39218795 -0.21985096 0.51146966 -2.2366428
00000000: 8589 bfbe a7bc 29be 5d54 b03e 7a13 9fbe
00000010: 20b7 5bbe 99b6 393c cc29 0c3c 48cb 013d
00000020: f3be 86be 78a9 08be 159a 5f3e 65a5 733e
00000030: f5a1 213e 5645 d93e 3f46 073b bc2e e33d
00000040: 2249 bd3e f29e 25be fd23 003e dd95 b8be
00000050: d94b 0cbe 67c3 72be 38c7 6cbc 5ae9 28be
00000060: 9ce6 683e c3e2 d13d 577c 953e da19 52be
00000070: 1be4 643c 1800 193d db8a 113f 2880 1fbf
00000080: bd2f b6be 6148 563f fc1f 8dbc 61fd 873f
00000090: 720a acbe 2644 aabf 242a 373e 9ea6 53bf
000000a0: 28e7 013f dccc c83e 9c20 61be adef 023f
000000b0: 2825 0fc0

layers.6.bias f4 [3]
-0.12597224 -0.082225755 0.01040289
00000000: defe 00be fa65 a8bd e270 2a3c
