Code/rendu/trained_model.ckpt (torch_old, 11394 bytes, 10 tensors)

layers.0.weight f4 [15, 3]
000000 46 25 21 3f f3 87 13 bf b3 d0 95 be 03 e4 bc 3e
       0.629475 -0.5762932 -0.29260787 0.3689271
000010 19 54 b7 be 44 5e 49 bf b3 f1 f6 be ec 41 32 3c
       -0.3580635 -0.7865946 -0.48231277 0.010879975
000020 5b ba da be 34 21 8d 3f 59 27 e1 be 75 49 05 3f
       -0.42720303 1.1025758 -0.43975332 0.5206521
000030 2f b7 1b 3f c7 57 48 3f 53 d4 fe bc 64 15 a8 be
       0.6082639 0.7825894 -0.031107103 -0.3282882
000040 70 fa ae 3e c9 2c 73 3f 7e 86 68 be d4 b1 fa be
       0.34175444 0.9499021 -0.22707555 -0.48963797
000050 cd 76 19 bf e5 aa c2 3d 26 da 98 bf c4 fe 3d 3e
       -0.599469 0.09505252 -1.1941574 0.18554217
000060 c7 6a bf be bb d2 5a ba a7 50 36 bf bc de 19 bd
       -0.37386152 -0.00083474413 -0.71216816 -0.03756593
000070 d7 10 18 3f e0 73 48 3b d4 a8 56 bf be 38 aa 3e
       0.59400696 0.0030586645 -0.8385136 0.33246416
000080 6f ad c7 3e 89 35 10 3d 08 1c 1d bf 8e 87 7c bd
       0.38999507 0.035207305 -0.613709 -0.061652713
000090 cd ff be be f5 60 fd be 41 89 30 bf 2e 61 9a be
       -0.37304536 -0.49488035 -0.6895943 -0.30152267
0000a0 05 c3 16 bd 30 74 39 3f b7 09 8d bf 1b a3 a3 3d
       -0.03680708 0.72442913 -1.101859 0.07990094
0000b0 26 0d 58 3e
       0.21098766

layers.0.bias f4 [15]
000000 f4 18 c7 3e 5d 28 42 3f b4 dc 3e 3f 00 9d 27 3e
       0.38886225 0.7584284 0.74555516 0.16368484
000010 17 11 e8 bd 54 ee 1b 3d 75 65 3f 3f 1c f5 b5 be
       -0.11331385 0.038069084 0.74764186 -0.35538566
000020 5b 3d 81 3e 8e eb 39 3e 10 94 d7 3d bf 09 4c be
       0.25242123 0.18156263 0.105262876 -0.19925593
000030 04 46 05 be 15 d2 01 3f c6 17 d6 3e
       -0.1301499 0.50711185 0.41815013

layers.2.weight f4 [15, 15]
000000 84 6e 45 3d 4a 0b 26 3f 0a 42 a8 be 7c 03 89 be
       0.0482011 0.64860976 -0.32862884 -0.2676047
000010 c0 10 92 bd 35 49 be 3e 56 ef 6c be f2 3f 57 bc
       -0.07132101 0.37165228 -0.23138174 -0.013137804
000020 06 4c fc be 01 74 df 3d 22 cf c4 3e 3a eb 5a be
       -0.4927675 0.10910798 0.3843928 -0.21378794
000030 df fb 15 bd f8 60 01 3f 16 c5 4f 3e 6e 29 3c be
       -0.036617156 0.5053859 0.20290026 -0.18375179
000040 98 ce 73 3f 8f 60 b3 be 1d e4 23 bf ae 99 e5 3c
       0.9523711 -0.35034606 -0.6401995 0.028027382
000050 a3 82 8b 3e 20 09 d0 3e 11 05 3b 3e 60 0b 89 bf
       0.27248105 0.40631962 0.18263651 -1.0706596
000060 07 cb e1 be 4a fb 10 3f d0 3c a0 bc 44 10 aa bf
       -0.4410021 0.56633437 -0.019560248 -1.3286214
000070 4f b9 53 3e 8f 71 46 3f d6 a0 e8 3e 05 43 bc 3d
       0.20676158 0.77517027 0.45435208 0.091924705
000080 80 1c db 3e 6f ee f0 3e fc dd 85 3d 8c a9 b5 3d
       0.4279518 0.4705691 0.06536481 0.08870229
000090 97 e4 28 bd 75 e1 b2 3e 23 b8 85 3e 90 98 04 be
       -0.041233625 0.34937635 0.26117048 -0.12948823
0000a0 0e 23 8c be b1 84 65 3e fd 6f e4 bc 19 5f e9 bd
       -0.27370495 0.22413899 -0.027885431 -0.113950916
0000b0 ff de 68 be 88 92 12 3e e6 f5 08 3e 40 5c ce 3e
       -0.22741316 0.1431371 0.13375053 0.40304756
0000c0 d4 15 a0 be ba 21 4b 3e 6a c7 7b bc c8 21 07 3e
       -0.31266654 0.19837084 -0.015367368 0.1319648
0000d0 1d d2 14 bd 7f 14 cf 3e 4e 4c 0a bd 44 35 be 3e
       -0.036333192 0.40445325 -0.033764176 0.37150013
0000e0 9c 1e b0 3d 0f 68 a9 3e ee db 19 be 2e d5 97 3e
       0.08599588 0.33087203 -0.15025303 0.2965483
0000f0 44 8a e0 3d a8 df 9c 3e 6c 14 f4 bd 1a c4 ac bd
       0.10963872 0.30639386 -0.11917958 -0.08435841
000100 3c d8 a7 3e 2d 93 37 3e 30 17 04 be 38 11 99 bd
       0.3278216 0.17927237 -0.1289947 -0.07473987
000110 68 3a a0 be c4 bf 56 3e 10 bb 63 3e 94 81 d2 3c
       -0.3129456 0.2097159 0.22239327 0.025696553
000120 4c 1b 94 be fb e6 c4 3e ff 47 4e 3e 5c 9d 36 3e
       -0.28927076 0.38457474 0.20144652 0.17833465
000130 06 e1 6a bd 72 8b 47 3c be 0b ae 3e 65 2d a5 3d
       -0.057343505 0.012179242 0.33993334 0.08065299
000140 33 df 18 3f b3 42 6a be 8e bc 8f 3e 35 db 27 3e
       0.59715575 -0.22877006 0.28073543 0.16392215
000150 aa 94 b7 3d f5 b4 76 bd 10 3a 15 bf 35 25 d7 bd
       0.08963902 -0.060231168 -0.5829172 -0.105051436
000160 69 95 40 3e 3f 63 3f be 0f 23 09 3e b7 df f3 bd
       0.18806995 -0.18690203 0.1339228 -0.119079046
000170 a5 ce 98 3e b6 2c ab 3e 87 ee 5f be 01 39 0e 3e
       0.29845157 0.3343255 -0.21868335 0.13888933
000180 e3 94 02 3d 8b a6 8d bd 58 0b b0 3e 78 1d 11 be
       0.03188027 -0.06916531 0.34383655 -0.14171398
000190 f9 3d fb 3d 0c 42 77 3c 62 a6 12 3e 09 25 5d 3e
       0.1226768 0.01509143 0.14321283 0.21596159
0001a0 b9 48 75 3e 90 60 46 bf 7a 02 f4 3d 53 8d 65 bf
       0.23953523 -0.7749109 0.11914535 -0.8966877
0001b0 11 c4 16 3f b5 5a 39 be 98 d8 33 3d a8 e6 83 bf
       0.58892924 -0.18101008 0.04390773 -1.0304766
0001c0 cb 74 95 3f 07 01 47 bd 99 a0 8e bf 68 b2 8e be
       1.1676267 -0.048584964 -1.114276 -0.27870488
0001d0 f0 11 62 bf 98 76 e6 3e 89 fe fc 3d e5 76 2f bf
       -0.8830862 0.45012355 0.12353236 -0.68540794
0001e0 5a 81 ae 3d dc b1 cd bd 40 e1 a4 3e 91 8a 17 3e
       0.085207656 -0.100436896 0.32203102 0.14798953
0001f0 d0 8d 89 3e b9 03 16 3e 15 9e 3f bc 6a ec bc bd
       0.26866007 0.14649858 -0.011695405 -0.0922478
000200 53 70 18 3e a6 1d 80 3e fd be aa be 5c 38 d7 be
       0.14886598 0.2502262 -0.33348837 -0.42035186
000210 8a 46 00 be 9e 0d c1 bd e9 67 cd bd cc 8e 61 3e
       -0.12526909 -0.094264254 -0.10029585 0.22027129
000220 9a cb 2f bd 9f df 2a 3d 11 37 c4 3e d8 1d 40 3e
       -0.04291878 0.041717168 0.38323262 0.18761384
000230 9b 4e ea 3d 5b 6a 29 be db dd 7c 3e 32 99 2e bf
       0.11440774 -0.16544478 0.24694006 -0.6820251
000240 24 a5 b5 bd 3e d4 f1 3e fc 0e 4f be cf 1d 20 bf
       -0.08869389 0.4723224 -0.2022056 -0.62545484
000250 78 1d 98 3e 27 b9 05 bf 80 ff 3f 3e 8b 95 6e be
       0.29709983 -0.52235645 0.1874981 -0.23299234
000260 73 bb 91 3d 80 17 d1 bd 33 93 0f be 3d c3 a3 39
       0.07115831 -0.102095604 -0.14020996 0.00031235247
000270 fb 5c 19 be 89 f2 e8 bd 55 e8 2b be 59 a1 a3 3c
       -0.14976875 -0.11374385 -0.16787846 0.019974397
000280 8a 6a 59 be b6 cb 4c 3e c5 94 f6 3d 65 c8 03 3e
       -0.21232048 0.19999585 0.12040094 0.12869413
000290 7e 5e 63 be d4 3b b2 3e 5e 78 a5 3e 3f 40 8b 3e
       -0.22204015 0.3481127 0.32318395 0.27197453
0002a0 47 48 df 3c 89 5a 1e be ad 8c 97 3e 3e 3e 1f 3e
       0.027256144 -0.15464224 0.29599515 0.15551087
0002b0 f0 a9 a0 3e df bd 77 3e fb e3 b1 be bb 0f d3 3d
       0.31379652 0.24193524 -0.34744248 0.10305735
0002c0 2b 9f 29 3e db 63 a0 3e 22 6e 7b 3e 7e 43 34 3e
       0.16564624 0.31326184 0.24553731 0.17603871
0002d0 64 7d 10 be 45 59 27 be bc e6 a0 3e 8f b4 bd 3d
       -0.14110333 -0.16342647 0.31426036 0.092629544
0002e0 e3 93 e3 3d d9 f7 af 3e 8c ce 20 3d 5e 3c 81 3e
       0.111121915 0.3436878 0.03925948 0.2524137
0002f0 ea 67 83 3e 0c 21 63 3e 6d ba 7e 3c 56 aa 36 be
       0.25665218 0.22180575 0.015547377 -0.17838416
000300 82 ba af bd 69 5a 3a 3c d4 e4 86 3e 6e 4f 3d 3d
       -0.085804954 0.0113740945 0.26346457 0.04621833
000310 13 26 4a bd e3 bb 42 3e b0 3c 18 be 6d 12 d0 bd
       -0.049352717 0.19016986 -0.148669 -0.101597644
000320 af 17 be 3e e8 80 84 bd e2 e5 22 3d 12 c8 9b 3c
       0.37127444 -0.064698994 0.039770015 0.0190163
000330 1b 8f 8f 3e da 46 15 3f 25 27 06 bb 1a 56 5a be
       0.28038868 0.58311236 -0.002047011 -0.21321908
000340 18 a7 87 3e 04 ad e3 bc be 0e 1a 3e b0 1c 0c 3f
       0.2649467 -0.027792461 0.15044686 0.54731274
000350 83 91 af be 84 d1 89 be a4 dd 73 bd 68 9d d3 3d
       -0.34290704 -0.2691766 -0.059537545 0.10332757
000360 b8 42 03 3e c6 28 a0 3d da 33 93 be 34 1a 5a be
       0.1281842 0.07820277 -0.28750497 -0.21299058
000370 4a 3d 99 3e cd c3 1f 3e bb f5 43 3e 6a 8e e2 3d
       0.29929572 0.15602036 0.19136707 0.110623196
000380 26 0b 95 3e
       0.29110068

layers.2.bias f4 [15]
000000 87 e7 32 3e d5 34 86 bf 98 dc a0 3e 6c f0 c3 3d
       0.17471133 -1.0484873 0.314183 0.09567341
000010 d0 69 26 3e 94 ce d9 bd 72 88 73 3d ec e8 36 be
       0.16251302 -0.10635105 0.059456296 -0.1786229
000020 19 37 ce 3e 69 f0 79 3d 06 f2 3d be 2b bb 09 3e
       0.4027641 0.06102029 -0.18549356 0.13450305
000030 25 4c 1a 3e b7 7f cc 3e e5 72 22 3e
       0.1506811 0.3994119 0.15864141

layers.4.weight f4 [15, 15]
000000 ca 78 d9 be 0a 49 86 bf 04 ba 0e 3e cd d3 0d 3e
       -0.42474967 -1.049104 0.13938147 0.13850327
000010 a6 9c 56 3e 05 8c 4f 3e a7 d8 28 3d b7 8b 80 3f
       0.20958194 0.20268257 0.04122224 1.0042638
000020 54 6a b0 3e 8c 9a 29 3e 99 9b 0e be 0f bb 05 be
       0.34456122 0.16562861 -0.13926543 -0.13059638
000030 9a 42 95 3e 7a 3b 1c 3e a5 13 da be 3c ae 8e 3e
       0.29152375 0.15257064 -0.42593113 0.27867305
000040 05 53 59 3f 2b ca 84 3e 90 b1 9b be cf d9 12 3f
       0.848923 0.25935492 -0.30408907 0.573636
000050 85 8d 9b 3e 0e c3 fe 3c 2d 51 08 bf a5 e5 85 3e
       0.30381408 0.031098869 -0.53248864 0.26151767
000060 58 d3 c9 3d 34 fe 53 be 25 61 10 3d 76 75 cd 3c
       0.09854764 -0.2070244 0.035248894 0.025080424
000070 1b 1c 91 bd 1d e6 98 3e ba d8 0d 3d af 60 63 3f
       -0.07085439 0.29863063 0.034630515 0.888194
000080 04 2d 11 3e 0e 1e a2 3e d3 af 87 3e a1 06 0a be
       0.14177328 0.31663555 0.2650133 -0.13479091
000090 26 ab ba 3c c6 4d f3 bd 87 43 f4 be 69 db 4a be
       0.022786688 -0.118800685 -0.4770777 -0.19810261
0000a0 df bc 86 bd d0 70 b3 3e 82 4e 57 be 58 ae c0 3c
       -0.06578993 0.35047007 -0.21026042 0.023520634
0000b0 9e 97 25 3e fc d4 1a bf 9d fc dd 3e c1 eb ff 3e
       0.16171119 -0.6048124 0.4335679 0.49984553
0000c0 77 08 cb 3d 51 83 0a 3e 40 1d f7 3d 37 dd 78 3d
       0.09913724 0.13526656 0.12066126 0.060757842
0000d0 7e 2c 74 3f 1d 30 2c 3f 30 e1 af 3e 8f db 10 bb
       0.9538039 0.67260915 0.34351492 -0.0022103523
0000e0 a7 b8 2f be e3 1f f8 3e d5 34 15 be 52 76 1c bf
       -0.17160283 0.48461828 -0.14570935 -0.6111804
0000f0 2a 64 9a 3d 94 b3 0d 3f d7 f8 83 be 2d c2 af 3e
       0.07538636 0.5535214 -0.25775787 0.34327832
000100 91 f7 d1 bd 51 cd d7 3d 29 67 94 3e 1d 50 2e 3e
       -0.10252298 0.10537208 0.28984955 0.17022748
000110 6c 82 3a 3d eb f8 9b 3e eb f4 70 3e aa 5b 9d 3e
       0.045534536 0.30463347 0.23530929 0.30733997
000120 c1 cc a7 3e 4a 1f 80 3e b1 f7 a6 3b 87 03 35 be
       0.32773402 0.25023872 0.005095445 -0.17677127
000130 52 10 a1 bf fc 88 9c 3d 5b 09 16 3d fd c2 a3 be
       -1.2583106 0.07643315 0.036630016 -0.31984702
000140 c8 11 5c 3e 0f e1 9c 3e c6 38 6f 3f 36 02 3b 3d
       0.21491158 0.30640456 0.93446004 0.045656405
000150 67 a5 e7 3e 2e 21 c1 3d ea 07 83 bd c0 70 eb 3e
       0.4524338 0.09430157 -0.06397994 0.4598446
000160 c8 3d c0 3d 89 ae 57 bf 22 29 ad 3e a6 57 8b 3f
       0.09386784 -0.84250695 0.33820444 1.0886123
000170 4b fa 31 39 26 42 52 bd b3 6f 8e 3e dd 9e 10 3d
       0.00016973277 -0.051332615 0.27819595 0.035307754
000180 35 0a 84 3e b0 41 33 bf db 56 91 be 94 61 29 be
       0.25789037 -0.70022106 -0.28386578 -0.1654113
000190 b3 fc 2e 3d e4 99 bb 3e c1 81 b2 3e 13 af 2a 3e
       0.04272146 0.36640847 0.3486462 0.16668348
0001a0 5e d4 bc 3e 16 f4 5b 3f 21 1a 9e 3f bd d7 89 be
       0.36880773 0.8591932 1.2351724 -0.26922408
0001b0 d6 78 49 bf 1b d3 f7 3e ac a1 cc 3e 43 b5 30 be
       -0.78700006 0.48403248 0.39967096 -0.17256646
0001c0 fc d1 11 bf d7 35 5b bd 7f cb 48 bf 8f 64 17 3d
       -0.56961036 -0.053518143 -0.7843551 0.036961135
0001d0 02 c0 f8 bd ff 9c 33 3e 43 dc 09 3e b8 5f 26 3f
       -0.121459976 0.17540358 0.1346293 0.64989805
0001e0 62 a6 48 bd a2 87 f2 be 38 2c 27 be 96 51 96 3d
       -0.0489868 -0.47369105 -0.16325462 0.0733978
0001f0 06 7d 1e 3e ad f5 29 3f 6e 8f 28 3e 35 c3 0e 3f
       0.1547738 0.66390496 0.16460964 0.5576661
000200 b4 c0 85 bd df 46 9f 3d 37 e2 31 bd 33 9e 9c be
       -0.06530896 0.077771895 -0.043428626 -0.30589446
000210 16 ba 99 3e 03 92 29 be 10 8d f6 3d c9 a4 56 3f
       0.30024785 -0.16559605 0.12038624 0.8384519
000220 af 66 99 3f e3 54 56 3e b1 d1 da be de 55 0a 3f
       1.1984462 0.20930819 -0.42738107 0.5403727
000230 a3 6c fe 3e ae 17 e8 bd f5 cc 7d bf aa 46 e0 3d
       0.49692258 -0.113326415 -0.99140865 0.10950978
000240 93 c7 dd 3b 52 1d 6a 3e f5 8c f9 bc 8b 32 1f bd
       0.006768176 0.22862747 -0.030462721 -0.03886656
000250 00 83 8b 3e f8 dd 8b 3e 92 e2 24 bf 52 d7 4e be
       0.27248383 0.27317786 -0.6440822 -0.20199326
000260 6d 6c c8 3e 8a 37 df bc 4a 7a 62 be 8b ea ad 3e
       0.39145222 -0.027248163 -0.22116962 0.33968005
000270 a6 62 d6 3e 56 87 2c 3f c8 ee 82 3c 42 9a 04 3f
       0.41872138 0.67394006 0.015983 0.5179788
000280 63 c3 a8 bb 04 ab c5 3e ac 34 2b bd 98 47 9c be
       -0.005150245 0.38607037 -0.04179828 -0.30523372
000290 8d 17 21 bd 41 80 26 be cb 35 86 be be 7c de 3e
       -0.0393291 -0.16259862 -0.26212916 0.43454546
0002a0 81 da 19 be 52 98 c6 bd 2a 83 30 be e5 16 51 3e
       -0.15024759 -0.096970215 -0.17237535 0.2041889
0002b0 d6 fa 3f 3f ac 25 07 3f aa 87 89 3e c2 ed e0 bd
       0.7499212 0.5279186 0.26861316 -0.10982849
0002c0 01 83 ef bc 2c 7b 23 3e c5 66 1b be 62 e4 e8 3d
       -0.029237272 0.15964955 -0.15175922 0.113716856
0002d0 de 36 dd be fe 02 6c 3e ef 1a 47 3e e7 bd c7 3e
       -0.43205923 0.23048016 0.19443868 0.39012071
0002e0 98 fa 32 be d5 04 a1 bd 26 e4 8f 3d 6c 5a ae 3e
       -0.17478406 -0.0786225 0.07025938 0.3405336
0002f0 53 6c 85 be 47 f2 17 be 8a 08 56 be 46 3b ef 3c
       -0.26059207 -0.14838515 -0.20901695 0.029203068
000300 0b 1e 51 3c 81 82 bb be 17 93 34 3d 73 73 22 be
       0.01276351 -0.36623004 0.04408559 -0.15864353
000310 ce 9e 26 bf 8d 51 1e 3e 4f 4c 06 3e 56 be 97 be
       -0.65086067 0.15460797 0.13115047 -0.29637402
000320 65 d0 22 3e 42 0c a6 3e 4a 2e 45 3f 6d c5 00 3e
       0.15899809 0.32431227 0.77023757 0.12575312
000330 c5 fe 03 3f 17 d5 66 3e 3a 7d 87 3e 78 82 12 be
       0.5156062 0.22542225 0.26462728 -0.14307582
000340 98 a7 84 be 8b 9e f7 bd 27 3f 51 bf c9 e5 e4 3c
       -0.25909114 -0.120907865 -0.8173699 0.027941601
000350 d1 f6 b3 3e be 5a 5d bd bb a4 ae be 31 07 43 be
       0.35149243 -0.054041617 -0.34110054 -0.19045712
000360 2b 5f 81 3d cb b9 85 3f b8 53 88 3e 31 7f 19 3e
       0.0631698 1.0447325 0.26626372 0.14989926
000370 2c f5 6f 3e 52 76 e5 bd 94 4e 83 be 68 76 90 bf
       0.2343337 -0.112042084 -0.25645888 -1.1286135
000380 92 ba f9 be
       -0.48775154

layers.4.bias f4 [15]
000000 c3 f4 97 3e a1 e4 00 bd 80 4b 20 3e eb da bc 3b
       0.29678926 -0.031468038 0.15653801 0.0057634017
000010 7c 11 cb bd 44 d9 38 be 5f e7 f2 3d ab e6 ab 3e
       -0.09915444 -0.1805163 0.11860537 0.33574423
000020 e7 a7 99 bb 13 d5 b6 3e a4 2b 00 3e 2d ba a3 3e
       -0.004689205 0.35709438 0.12516648 0.31977978
000030 c5 00 99 3e 98 0a aa 3e ad d3 77 be
       0.298834 0.33211207 -0.24201842

layers.6.weight f4 [3, 15]
000000 85 89 bf be a7 bc 29 be 5d 54 b0 3e 7a 13 9f be
       -0.37409607 -0.16575871 0.34439364 -0.31069547
000010 20 b7 5b be 99 b6 39 3c cc 29 0c 3c 48 cb 01 3d
       -0.21456575 0.011335039 0.008554887 0.031688005
000020 f3 be 86 be 78 a9 08 be 15 9a 5f 3e 65 a5 73 3e
       -0.26317558 -0.13345897 0.21836121 0.23793562
000030 f5 a1 21 3e 56 45 d9 3e 3f 46 07 3b bc 2e e3 3d
       0.15784438 0.42435712 0.0020641235 0.11092898
000040 22 49 bd 3e f2 9e 25 be fd 23 00 3e dd 95 b8 be
       0.36969858 -0.16173914 0.12513728 -0.36051837
000050 d9 4b 0c be 67 c3 72 be 38 c7 6c bc 5a e9 28 be
       -0.13700809 -0.23707353 -0.014451794 -0.16495267
000060 9c e6 68 3e c3 e2 d1 3d 57 7c 95 3e da 19 52 be
       0.2274422 0.102483295 0.29196426 -0.20517674
000070 1b e4 64 3c 18 00 19 3d db 8a 11 3f 28 80 1f bf
       0.0139704 0.037353605 0.568525 -0.62304926
000080 bd 2f b6 be 61 48 56 3f fc 1f 8d bc 61 fd 87 3f
       -0.35583296 0.8370419 -0.017227165 1.06242
000090 72 0a ac be 26 44 aa bf 24 2a 37 3e 9e a6 53 bf
       -0.3360172 -1.3302047 0.17887169 -0.8267611
0000a0 28 e7 01 3f dc cc c8 3e 9c 20 61 be ad ef 02 3f
       0.5074334 0.39218795 -0.21985096 0.51146966
0000b0 28 25 0f c0
       -2.2366428

layers.6.bias f4 [3]
000000 de fe 00 be fa 65 a8 bd e2 70 2a 3c
       -0.12597224 -0.082225755 0.01040289

mean f4 [3]
000000 e6 e6 33 3e 6d 6d 60 bf 3c 6c 60 3f
       0.1756855 -0.8766697 0.8766515

std f4 [3]
000000 25 c8 a3 40 f7 26 9a 40 b2 d1 38 40
       5.1181817 4.8172565 2.8877988
